data/linear_1.weight.npy (npy, 120128 bytes, 1 tensors)

array f4 [200, 150]
00000000: 6aee 10bc f8f5 aebd 14ec 94bd 0708 8b3d
00000010: d38d 0b3d 598a 36bc b8cc 72bc 8f41 803d
00000020: 85e4 bb3b 464a 3dbe feba 0ebd fd86 83bb
00000030: 91cf 1dbe 0915 c53d 62c9 a1bd 686a 0bbe
00000040: 30c6 84bd 0564 ecbd c6bb d23d c144 4dbd
00000050: cdf8 31bd ecb2 c73d 9668 cdbd 6396 a1bc
00000060: 44cd f4bc f698 b1bc 6bf9 0dbe e86e 873d
00000070: dbbb 423b 3864 79bd 985b 84bd 863c 223d
00000080: 59c1 093d 9a86 ed3d e784 98bd 8ae2 7ebc
00000090: 3bc6 3ebd b3d1 d8bc c140 8d3d d3ba 76bc
000000a0: cd55 953d a258 86bb d4b3 8cbc 0d82 80bd
000000b0: 99e5 1fbe d1bf b23b aabc 22bc 4a7a a53d
000000c0: 7964 0a3d ce8a 20bc 98a6 3b3e b7e3 00bd
000000d0: 095d 0cbe 4670 3f3d dfe0 00bc 697d b63c
000000e0: 18b0 f939 b63e 893d d828 b0bb 47b4 1b3d
000000f0: c5b9 6c3d 496c 2cbe 57f2 3b3c 6d46 56bd
00000100: 0e6a 3dbd d8e7 a73d 5693 6b3d 10e2 5abd
00000110: 0d82 03bd 44ec 16bd dfad e7bd d229 50bc
00000120: c7ce 1fbe c280 68bd c1b8 9a3b 3c0b 21be
00000130: 2fc4 03be d85a b7bd 4e22 72bd 3c2e 2c3e
00000140: 1131 d9bb 3dc6 98bd c21b 7dbd e92a 11bc
00000150: a1e7 bd3c 123d 1abd 7380 18be 98b1 bbbc
00000160: 52c1 17bc 6680 f6bd 233b 0cbe 118f 223c
00000170: 1c6f 683c 315a 393c 7859 9b3d 5842 0ebd
00000180: 2e6a 2cbe 49a8 043e 2c93 e63a 19ef 19be
00000190: 4ccd 483d 4195 e2bc f513 953b e40d 9ebd
000001a0: fff7 8cbd 748b 47bd aa56 9cbd f954 7abd
000001b0: 7730 e43d 3281 50bd feca 6bbc c5cd bb3d
000001c0: f6f0 4ebd 43f3 633d c272 993d eb6e 7e3b
000001d0: 4e39 c9bb abd4 4b3d a67b abbd 6b0a 71bc
000001e0: 11ce abbc 6e02 a0bd 4f88 0abd 4c85 d93d
000001f0: 6c24 d7bc a784 353d b7a3 903b e8b8 25bc
00000200: 3f17 efbd dcdd 913c ff3e 33bb 5710 b63d
00000210: 5b1d 653c 604c 883c b887 85bd 115c 5e3e
00000220: d9f7 623c aa43 2a3d 53b7 4b3d cc47 fbbb
00000230: 9b88 3d3d b1ed 08bc 64c3 1fbe 44a0 b1bc
00000240: 15b9 883d 3a62 6d3d 0df1 f2bc 5a9b 033d
00000250: db97 9ebd 389b a3bd 7b93 26bd 78bd d43a
00000260: 2782 01be 820b 8fbd a2f8 28be 3d48 1f3d
00000270: a7bb 4b3d 3338 09be 32b4 debd 289c 833d
00000280: ac28 9abd 6781 bfbd e82c ddbd c05d 10be
00000290: 7548 1c3d e546 123e 811e 2bbc 3328 073d
000002a0: 9d5d 72bd 6e2e c3bc a0db b4bd 1b4d 70bc
000002b0: b3d7 1cbe 79f6 c63c 4ace 863d 3143 9dbd
000002c0: 77f4 0fbe b768 593b c154 a8bc 58e9 943d
000002d0: 454a e7bd 2b3a cebd f41e 28bd 251c 50bd
000002e0: 34cc abbd 4278 8ebd a23f 9abc eab4 b53c
000002f0: c7e9 10be 1ecd 74bb 71e7 2d3d b8e3 bcbc
00000300: b851 20bd 95ea 74bd 0259 0b3e b25e 8a3c
00000310: ef79 ca3c 6d20 eebc 3901 563d f71e 473e
00000320: 821f 17be 3b4e 303e 62eb 423e e463 60bc
00000330: 6933 17bd 499e 6d3c 6983 3f3d 8956 a3ba
00000340: cae6 54be ee0a f43d bbae 1a3d 7023 b33d
00000350: f146 603d 3788 04bd 863d 8bbd 3507 13bd
00000360: 4400 5abe 321f ae3d 0b3d 313c 23d6 093e
00000370: 7fff 533b 6ed2 28be 3a9f 5a3e b46f 81bd
00000380: 6d3c cfbc 8dbb 0a3d 013d 3d3e c3a7 a7bd
00000390: 6960 48be fb52 24bc 6f3f 2abd 78d5 5dbd
000003a0: 892e 7ebd c4c8 d53c 999d d73d f38d 7e3c
000003b0: c81d c33c a34e 18bb bee0 d9bb 2652 c1bb
000003c0: cd92 80bd 667d 8d3d 3996 56bd f9e6 03bc
000003d0: f635 88bd f177 cfbd c8f7 703c f061 e13c
000003e0: 0e87 0bbd 991b 2ebe d7d1 793d f6bf ef3b
000003f0: 41e6 4cbe 3c03 05bd 7cef 77bd 9cf8 75bd
-0.008845905 -0.085430086 -0.07271591 0.067886405 0.0340708 -0.011141383 -0.014819317 0.06262504
0.0057340288 -0.18485364 -0.0348463 -0.0040138946 -0.15411212 0.09623153 -0.07899739 -0.1361481
-0.06483114 -0.11542515 0.10289721 -0.050114397 -0.043450166 0.097509235 -0.10029714 -0.01972503
-0.029883035 -0.021679383 -0.13864677 0.066129506 0.0029714021 -0.06088659 -0.064627826 0.0396085
0.033631656 0.11597939 -0.07447224 -0.015556941 -0.046575766 -0.02646718 0.068971165 -0.015059191
0.07291756 -0.0040999213 -0.017175592 -0.06274805 -0.15614928 0.005454995 -0.009932676 0.080799654
0.033787224 -0.009798719 0.18325269 -0.031467166 -0.13707365 0.04673793 -0.007866113 0.022276597
0.0004762418 0.06701414 -0.0053759627 0.038013723 0.05779435 -0.16838183 0.011471353 -0.052313257
-0.04624372 0.081985176 0.057513557 -0.053438246 -0.032106448 -0.036846414 -0.1131246 -0.012705283
-0.15606223 -0.056763418 0.0047217314 -0.15726942 -0.12867807 -0.08952874 -0.059114747 0.16814512
-0.0066281636 -0.07459686 -0.06179405 -0.008860328 0.023181738 -0.037655897 -0.1489275 -0.022911832
-0.0092624 -0.12036209 -0.13694434 0.009921805 0.014186647 0.011313007 0.07585424 -0.03473124
-0.1683738 0.1295482 0.0017591468 -0.15032615 0.04902391 -0.02765906 0.004549498 -0.07717493
-0.06883239 -0.048716977 -0.07633717 -0.061116192 0.111420564 -0.05090446 -0.014391659 0.09170107
-0.050522767 0.055651914 0.074925914 0.0038823436 -0.0061408645 0.049763363 -0.083731934 -0.0147119565
-0.020972284 -0.078129634 -0.0338214 0.106211275 -0.026262484 0.04431596 0.0044140476 -0.010114886
-0.11674356 0.017805986 -0.002735078 0.08889835 0.01398405 0.016637981 -0.06520027 0.21714808
0.013853037 0.041568436 0.04973538 -0.007668471 0.046272855 -0.008357451 -0.1560188 -0.021682866
0.066759266 0.057955004 -0.029655958 0.032130577 -0.07743808 -0.0798859 -0.040667992 0.0016230782
-0.12647305 -0.06984617 -0.16501096 0.03888725 0.049739506 -0.13400345 -0.10874213 0.06426269
-0.07527289 -0.093508534 -0.10799581 -0.14098263 0.038155038 0.14284857 -0.010444284 0.03299732
-0.059171308 -0.02382585 -0.08830953 -0.014666821 -0.15316658 0.02428745 0.06582315 -0.07678831
-0.140581 0.0033173987 -0.020548226 0.07271069 -0.11293463 -0.100696884 -0.041045144 -0.05080809
-0.08388558 -0.06956531 -0.01882917 0.022180993 -0.14151679 -0.0037353705 0.042457048 -0.023057804
-0.039140433 -0.059794027 0.13608173 0.016890857 0.024716346 -0.029068196 0.05224726 0.19445406
-0.14758113 0.17217343 0.19035104 -0.013695691 -0.036914263 0.01450307 0.046756182 -0.0012461703
-0.20791164 0.11916147 0.037764292 0.087469935 0.054755155 -0.032356467 -0.06798844 -0.035895545
-0.21289164 0.08502044 0.010817776 0.13460593 0.0032348332 -0.16486523 0.21349803 -0.06320134
-0.025297368 0.03387027 0.18480302 -0.08186295 -0.19568028 -0.01002955 -0.0415644 -0.054158658
-0.062056098 0.02609671 0.10528106 0.015536773 0.023817912 -0.002324023 -0.006649106 -0.0058996854
-0.06278 0.069086835 -0.052389357 -0.008050674 -0.06650917 -0.10130299 0.014707513 0.02751252
-0.034064345 -0.17002715 0.060991134 0.0073165847 -0.2000971 -0.032473788 -0.060531124 -0.060051546
