data/linear_2.weight.npy (npy, 8128 bytes, 1 tensors)

array (column-major) f4 [200, 10]
000000 5e f0 18 3e ae e9 1f be 57 1f 15 3d c9 93 ca 3d
       0.14935443 -0.15616485 0.03640684 0.09891469
000010 8e 5e 5c 3e 0f 75 67 bd c8 92 97 3d 06 34 cc 3d
       0.21520445 -0.05650812 0.07401043 0.0997086
000020 61 8d cc 39 ee 11 d7 3c 3b 66 0c 3e 93 68 f2 3d
       0.00039015248 0.026253667 0.13710873 0.11836352
000030 d8 9f 51 3d 7f 4e ac be 6e bf cd bd 1b 49 46 be
       0.05117783 -0.33653638 -0.10046278 -0.19363825
000040 60 e7 c3 3b ed a0 d2 3c 66 2a 65 be ee 74 0c bd
       0.00597851 0.025711501 -0.22379455 -0.0342912
000050 84 3d 97 3d 43 1f 9e bd 56 f2 ed 3c 9c 20 71 bc
       0.0738478 -0.077208064 0.029046219 -0.014717247
000060 31 11 99 bd c5 14 65 3e 3c ba d3 bd 74 68 fc bc
       -0.07473982 0.22371204 -0.10338256 -0.030811526
000070 55 c5 d7 3a 2a 08 c5 bd e8 cd 57 be 11 67 12 be
       0.0016462008 -0.09620698 -0.21074641 -0.14297129
000080 05 ee 4c 3e 54 f0 4a bc 88 d1 6f 3e 8c 33 ab bd
       0.20012672 -0.0123864 0.23419774 -0.08359441
000090 6a ae 86 3e 55 ca 2d 3a a9 5c be bd fa dc 11 be
       0.26304942 0.0006629576 -0.09295017 -0.14244452
0000a0 4a 62 1f 3d ef de eb bd 10 bb 33 be dc ec ad bc
       0.038912095 -0.115171306 -0.17551827 -0.021231107
0000b0 e4 8e 1b 3e 48 10 5e be 34 d7 1e 3e f7 5f 01 be
       0.15191227 -0.21685898 0.15511781 -0.12634264
0000c0 6e 19 9d 3d f0 c9 12 3e cb 78 41 be 97 9a a6 bd
       0.07670866 0.14334846 -0.18893735 -0.081349544
0000d0 ad d9 97 be d1 1e 0e be 1e fe bd 3c f3 05 d9 bd
       -0.2965826 -0.13878943 0.023192462 -0.10596838
0000e0 8f 37 5f 3c 12 8b 57 bd 59 b1 d2 bc 16 55 cc bc
       0.013624086 -0.052622862 -0.025719332 -0.024942916
0000f0 5f 0c 98 bd 92 9c 3d 3e 9c b2 47 3e 48 66 a3 bd
       -0.074242346 0.18516758 0.19501728 -0.07978493
000100 ee db c1 bd 70 2a e8 bd 10 b0 eb 3d 10 50 6b 3e
       -0.094657764 -0.11336219 0.11508191 0.2297976
000110 4c 5a 6f bd f0 04 77 bc 50 76 6e bc 26 e4 aa bc
       -0.058435723 -0.015076861 -0.014554575 -0.020860743
000120 80 2f 67 bc 74 b9 61 bd 10 b8 f8 3b 35 4f 19 bd
       -0.014110446 -0.055108503 0.0075903013 -0.037429053
000130 62 55 9e bd d9 07 bb 3d 78 7d 35 be 3f bd d3 bc
       -0.07731129 0.09132356 -0.17723644 -0.025847076
000140 11 c1 3b bd 60 cf 04 3d a1 a6 9b 3b 04 a8 97 3e
       -0.04583842 0.03242433 0.0047500883 0.29620373
000150 22 b0 82 be 75 97 ef bc 95 80 99 3e 22 a3 4e bd
       -0.25525004 -0.029247025 0.29980913 -0.050448544
000160 8e 6f 84 3c f7 c1 da bd 64 7e 7b be 69 b4 6e be
       0.016166475 -0.10681527 -0.24559933 -0.23311009
000170 46 39 04 be 8c 36 b7 3e 40 33 f4 bd 7b 09 fd bc
       -0.12912473 0.35783803 -0.11923838 -0.03088831
000180 d8 d3 37 3e df 1f 05 bd 17 56 40 be c5 18 46 be
       0.17951906 -0.032501098 -0.1878284 -0.19345386
000190 a4 f0 4a bd 6b 9f 4a 3d 82 be a3 bd f2 79 28 bd
       -0.0495459 0.04946844 -0.07995321 -0.04113192
0001a0 08 c2 af bd c8 dc 91 3d d4 b7 18 3e aa 5e 33 be
       -0.085819304 0.07122189 0.14913875 -0.1751658
0001b0 41 fd e2 3b c4 28 87 3e 2b aa c7 bc 64 95 5b bd
       0.006927163 0.2639829 -0.024373135 -0.053609267
0001c0 f2 b5 24 be 53 c8 2a be 1d 98 26 be 7a c9 bc 3d
       -0.16085032 -0.1667798 -0.16268964 0.09218116
0001d0 78 20 44 3e 6b 08 6c 3d 0c 93 cf bb b0 33 df ba
       0.19153011 0.057625216 -0.006334668 -0.0017028954
0001e0 5d f9 33 3e 24 2e a3 3e 00 ee 59 bd 2f 14 a7 3d
       0.17575593 0.3187114 -0.05320549 0.081581466
0001f0 e2 bd b7 3d 8c e5 9b 3d 75 4e 42 3d f5 29 e4 3d
       0.08971764 0.07612142 0.047438104 0.11140815
000200 92 f5 42 3e 4e 64 22 be ac 72 3f bc 7c 5e ec bd
       0.1903899 -0.15858576 -0.011685055 -0.11541459
000210 e6 88 c3 3d 51 49 4d 3e 4f 4f c7 bd e8 a5 87 be
       0.09547596 0.20047499 -0.09731924 -0.26493764
000220 17 07 73 3d 90 a5 89 bc 45 1b 6c 3e 5d da 9f bd
       0.059332933 -0.01680258 0.23057278 -0.07805321
000230 39 66 95 3c a6 e6 63 3b ef f9 9c bd 4e 1d 08 bc
       0.01823722 0.0034774928 -0.076648585 -0.008307768
000240 f1 f0 33 be 80 d2 16 bd 94 9a f3 bb b0 dc 6e 3e
       -0.1757238 -0.036821842 -0.0074341986 0.23326373
000250 05 73 0a be a9 05 c6 bd 7a 50 16 be 23 9f 9c be
       -0.13520439 -0.09669048 -0.14679137 -0.30590162
000260 c3 5e bd bc 98 7a 48 bc 9d 3a 68 be ec 4a 04 3e
       -0.023116475 -0.01223626 -0.22678609 0.12919205
000270 1d f2 0d bd ac d4 1f bd 71 95 01 bd 9f 00 8a 3c
       -0.034654725 -0.03902118 -0.03163666 0.016846
000280 fe c9 2d 3e 4d 75 8e 3d c9 77 4e 3d 28 3d 72 bd
       0.16971585 0.06955967 0.050407205 -0.059140354
000290 35 a4 3e bd 97 69 67 3e 1f 2e e9 bc 28 9c 28 bd
       -0.04654332 0.22598873 -0.028464375 -0.041164547
0002a0 c8 a8 d4 bc 99 bb cf bd 7a 53 1d bb 55 00 99 bd
       -0.025959387 -0.10143203 -0.0024006055 -0.074707665
0002b0 31 30 5e 3e da 06 bb bd c9 dd 06 3d 74 d2 00 3d
       0.21698071 -0.09132166 0.032926355 0.031450704
0002c0 3c 60 e2 bc 79 75 9a bd 68 dc 67 3c 32 b1 98 3c
       -0.027633779 -0.075419374 0.01415167 0.01863918
0002d0 20 de 5c 3d c7 89 04 be 54 5d 0d bd d9 6e 9b bd
       0.053922772 -0.12943183 -0.034512833 -0.07589502
0002e0 8a 51 1b bd b1 89 47 3e 1d 04 24 3e 29 64 42 be
       -0.03791956 0.19486119 0.16017194 -0.1898352
0002f0 56 15 9a 3e 76 75 3f be e9 93 c0 b9 2e 23 22 be
       0.30094403 -0.18697152 -0.00036731295 -0.15833732
000300 e9 f2 93 3d f4 a9 3f 3e fb 94 17 bd a8 99 29 be
       0.07224066 0.18717176 -0.037007313 -0.16562521
000310 ce 2a 46 bd 2b 7f 2d be d4 9c 5d be 2e 07 ae 3d
       -0.048380665 -0.16943042 -0.21641856 0.08497463
000320 15 32 56 3d 79 f4 a9 3d 1c 6a 3a be d9 75 95 be
       0.052293856 0.082985826 -0.1820454 -0.29191473
000330 a1 a7 4d be 1b 24 f7 bd 07 46 fd bd c2 46 7f be
       -0.20083477 -0.120674334 -0.12366872 -0.24929336
000340 f1 14 bc be 87 94 3f 3d fa 02 45 be 27 bb 80 be
       -0.36734727 0.046772506 -0.19239417 -0.25142786
000350 be 73 1c be f1 a8 68 3e 7a 17 35 3d 46 55 0e 3d
       -0.15278527 0.22720696 0.044211842 0.03474929
000360 56 cc 20 3e a8 44 03 be 77 f9 7d 3e 18 30 92 3c
       0.15702948 -0.12819159 0.24802195 0.017845199
000370 06 75 95 bd f6 98 83 bd 9f 5a 85 bd a4 49 eb bd
       -0.07297711 -0.06425659 -0.06511425 -0.11488655
000380 31 d8 3c bd f2 59 a6 bd 44 85 35 3d e9 ec 14 be
       -0.046104614 -0.081226245 0.044316545 -0.14543499
000390 93 45 43 bd 0b 53 41 bc 92 a0 a8 3d 5f 89 7d 3e
       -0.047673773 -0.011799584 0.08233751 0.24759434
0003a0 23 9e 12 be 72 12 ac 3d 39 e2 be bc 65 a7 18 3e
       -0.14318137 0.08401956 -0.02330123 0.14907606
0003b0 30 58 a9 bd 58 5f 70 bc 26 fd 9d bd 42 fc e4 bd
       -0.082687736 -0.014671169 -0.077143 -0.11180927
0003c0 c8 ef a2 3e a7 ab 2f be f8 22 36 3e 7a dd ac bd
       0.31823564 -0.17155324 0.17786777 -0.08440681
0003d0 20 13 58 be c1 fe 89 3e 98 af ce bd 59 86 9f bd
       -0.21101046 0.26952174 -0.100920856 -0.07789297
0003e0 7d f6 13 3e 4d b9 98 bd 7b 95 34 be 35 f4 0e 3d
       0.14449497 -0.07457218 -0.17635147 0.034900863
0003f0 cd 3d 35 bd d9 1f 75 bd e4 f1 88 3e 72 cd e1 3c
       -0.04424839 -0.059844825 0.26747048 0.027563784
