data/linear_0.weight.npy (npy, 470528 bytes, 1 tensors)

array f4 [150, 784]
00000000: 1cad b7bc b023 8dbc d6f0 263c b6f3 483c
00000010: c253 473c 4058 a43c 17ad 113c 99a8 0abc
00000020: 9deb f6ba a641 d13c 8587 52bc b92f 7bbc
00000030: 200a b83b 43b7 cf3c ca1b 3bbc a7c6 da3c
00000040: c2f8 b23c 56e8 d93c b7ca a93c cfa6 8e3b
00000050: 0161 183c 4261 9abc a31f d5bb 1567 f33c
00000060: a3e5 7ebc 4edb 843c ce48 a7bb f549 863c
00000070: d4d9 c7bb 1a4e 853c 8c4f 86bc 6f03 16ba
00000080: 02af ea3c 7f94 d2bc fcba a239 1d9a 823c
00000090: 0743 87bc 552f bdbc 775e b7bc b674 563c
000000a0: f59c ef3b 87da db3a 50fa c7bc d2de cdba
000000b0: 48ef d5bb 00b4 d0bc 29b7 bfbc cb61 873c
000000c0: 8633 7dbb 3906 063c 5c07 273c 2f7b d73c
000000d0: 6f62 c23c 3f70 c03b 51c2 42bb 937d babc
000000e0: fdca aebc e144 753c c24d 99bc e77a 483a
000000f0: 9b4a 80bc c88e fbbb 019a 883b be24 9cbb
00000100: 5c1d bd3c 6885 92bc ecca f33c fadd 0f3c
00000110: bc01 debb dd12 193d 1613 963c 34db 5f3c
00000120: 2c42 9abc 6e4b 823c 86e3 533c 508b 053d
00000130: 3aad 643c c20a 883c 87f0 1c3c d59e be3c
00000140: 3498 a5bc 5d11 ea3c 3af5 0f3a 8109 2abc
00000150: e9f4 b0bc f74c 57ba 377c 18bc b94e 06bc
00000160: 43bc b43c db24 c4bc c54b 51bc 2be2 51bc
00000170: 2146 6dbb 119f e93b ec18 653b f339 d1bc
00000180: 17e5 043c 69fa 183b d128 8e3c a773 c93a
00000190: 6925 b238 b7f1 0abc 22a1 063d 3b95 703c
000001a0: aa41 b93c f6c8 32bc 3af4 c2ba 9744 aa3c
000001b0: 9ccd b03c 5c54 ddbc 1239 ccbb 32c1 a6bc
000001c0: 8461 73bc 725d c4bc fa35 96bc 77d9 6b3b
000001d0: 7678 a93c ec5c aebc 58a2 b73c 5800 73bb
000001e0: 04b5 d43c 18dc ac3c ddbc 8c3b 9d0e e13b
000001f0: 94a9 0fbd 9568 e2bb 1a8c 21bd 942b 10bd
00000200: 39e9 d53b 3e5c b0bc 575c 133d d7a7 113d
00000210: ee0e fb3b 0ecf 013d 8f41 183d bce2 e9bb
00000220: 6743 d1bc 3ff2 843c ab52 a8bc ce25 983a
00000230: 1099 473c 6519 723b b794 9c3b 7223 64bc
00000240: cfc8 0cbc d601 b23c 9587 babc 1ce7 cf3c
00000250: efae 783c cf52 e3bc 2d48 63bc 6aaf f3bc
00000260: 87af 22bd ccf2 38bd 4736 78bd 6ab6 61bd
00000270: 710a 20bc 331d 4e3c 53d1 af3c 09e9 773d
00000280: 8241 593c f287 89bc 4e91 de3c cdcb 963c
00000290: 8421 503c b3aa 74bc 0526 7fbc bdb0 78bc
000002a0: 8a01 f73c 680a 5abb 9f58 773c 59da 66bc
000002b0: 2d72 00bc 4548 1dbc f325 c33c 64c0 b7bc
000002c0: 00b8 5abc 309c 32bd e5a0 45bd cdc5 e3bd
000002d0: 6caa 63bd 6c6a c0bd a773 85bd 73d9 55bd
000002e0: 8a9a 0fbc a884 febc 2abe 023d e5d8 623d
000002f0: 016f 663c b2b8 f9ba e7a7 85bc 0f8f d83c
00000300: 48f5 0dbb 36d0 26bb 0d41 4c3c 1c0b 323c
00000310: 8f13 bf3c 58ca aa3c 82e1 f43c 7256 c1bc
00000320: dc83 a9bc 4a14 d33c b43e 7a3c 5dca 0a3d
00000330: ab1e 40bc 1650 1fbd c80c 29bd 52da d3bd
00000340: 8a14 c0bd f43e 34bd e906 88bd ea82 20bd
00000350: 46f4 0bbb bb88 10bd ddc1 a7bc 8904 933a
00000360: 22e9 debb d1d5 f63c 5fad 563c 5a3a ffbc
00000370: e6ec 1bbd 699b de3b 5ff6 8ebb 4553 b2bc
00000380: 1458 243c 09ce 1bbc 14d4 8fbc 157c de3c
00000390: c2ce 7b3c 4547 be37 4184 533d e242 13bb
000003a0: 412e 923a ac1e 5abd cf58 1bbd c7b4 45bd
000003b0: fd56 84bc 7a61 0fbd 2efe 59bc 7fc6 4abd
000003c0: c2e4 02bd 48a4 25bc 801e 42bc ab65 4fbd
000003d0: 2317 c03c 336e 703b 0682 5b3c f5d0 09bd
000003e0: 73ff 34bc e6ed 833b bb05 dbbc 8ae4 ba3c
000003f0: d576 87bc 8489 58bc b8ff 74b8 1cde c23c
-0.022421412 -0.017228931 0.010189256 0.012265136 0.0121659655 0.020061612 0.0088913655 -0.008463048
-0.0018838529 0.025543999 -0.012849693 -0.015331202 0.0056164414 0.02535594 -0.0114202 0.026706053
0.021847133 0.026600044 0.020726545 0.004353381 0.009300471 -0.018845204 -0.0065040155 0.02971224
-0.015557679 0.016217854 -0.0051051145 0.016392687 -0.006098965 0.016272593 -0.016395353 -0.00057225575
0.028647903 -0.025705574 0.00031038362 0.015942628 -0.016511453 -0.023093859 -0.022383912 0.0130893495
0.007312412 0.00167735 -0.02441135 -0.0015706664 -0.0065287687 -0.025476456 -0.023402767 0.016526124
-0.0038635447 0.008180195 0.010194626 0.026303856 0.023728577 0.005872756 -0.0029717872 -0.022764957
-0.021337027 0.014970035 -0.018713836 0.00076477084 -0.015660575 -0.007676933 0.0041687493 -0.004765122
0.023085289 -0.017885879 0.029759847 0.008780951 -0.006775109 0.037371505 0.018319648 0.013663102
-0.018830381 0.015905108 0.012932664 0.032603562 0.013957316 0.016606692 0.009578831 0.023269096
-0.020214178 0.028572733 0.00054915587 -0.0103782425 -0.021601157 -0.0008213068 -0.009306959 -0.00819748
0.022062426 -0.023943355 -0.0127744125 -0.01281027 -0.003620513 0.007129558 0.0034957482 -0.025540328
0.00811126 0.0023342615 0.017353447 0.001536955 8.4946696e-05 -0.008480481 0.032868512 0.014684017
0.022614319 -0.010912171 -0.001487381 0.02078466 0.021582417 -0.027017765 -0.0062323892 -0.020355795
-0.0148547925 -0.02397034 -0.018336285 0.0035987773 0.020687323 -0.021284543 0.022416279 -0.0037079062
0.025965221 0.021101043 0.004294975 0.006868197 -0.03507383 -0.00690944 -0.039440252 -0.03519781
0.0065280464 -0.02152836 0.035976734 0.035560455 0.007661692 0.031691603 0.037171897 -0.0071376245
-0.025544835 0.016228793 -0.020547232 0.0011607946 0.012182489 0.0036941406 0.0047784704 -0.013924466
-0.008592798 0.021729391 -0.022769729 0.025378756 0.015178426 -0.027749447 -0.0138721885 -0.02974673
-0.039718177 -0.045153424 -0.060598638 -0.055105604 -0.009768114 0.012580204 0.021462118 0.060524974
0.013260247 -0.016788457 0.027168896 0.018407727 0.012703303 -0.014933276 -0.015573029 -0.015178856
0.030152101 -0.0033270363 0.0150968125 -0.014090144 -0.007839722 -0.00959975 0.023821807 -0.022430606
-0.013349533 -0.043605983 -0.048249144 -0.11121712 -0.05558245 -0.09395298 -0.065161996 -0.05220933
-0.008764872 -0.031069115 0.031919636 0.055382628 0.014064551 -0.0019052236 -0.016315414 0.026435403
-0.0021661092 -0.0025453693 0.012466681 0.0108669065 0.023324756 0.020848438 0.029892687 -0.02360079
-0.020692758 0.02576651 0.015273739 0.033884395 -0.011726062 -0.038894735 -0.041271955 -0.10344376
-0.093789175 -0.04400535 -0.06641943 -0.03918735 -0.0021355315 -0.035286646 -0.020478183 0.0011216562
-0.006802694 0.030131252 0.013102858 -0.031155754 -0.03806772 0.0067934287 -0.004362866 -0.021768222
0.010030765 -0.009509572 -0.017557181 0.027158776 0.015369119 2.2682952e-05 0.0516398 -0.0022470285
0.0011152701 -0.053251907 -0.03792649 -0.048268106 -0.01615476 -0.03500507 -0.01330523 -0.049505707
-0.03195644 -0.0101099685 -0.011848092 -0.050634068 0.023448532 0.0036686778 0.013397699 -0.033646543
-0.011047232 0.0040261624 -0.026736131 0.022814054 -0.016536156 -0.01321638 -5.841229e-05 0.02378755
