data/linear_0.weight.npy (npy, 470528 bytes, 1 tensors)

array (column-major) f4 [784, 150]
000000 49 54 75 bc 48 ca 82 bb 0b 6e 93 3c c7 e0 b2 bc
       -0.014973708 -0.003991399 0.017996809 -0.021835698
000010 30 e0 37 3c d5 86 cc 3c a3 c8 3a bb f0 d0 14 3c
       0.011222884 0.024966637 -0.0028500936 0.009083018
000020 6f 3d f5 3c 30 f6 66 3c b1 68 02 3d cc dc 96 3c
       0.02993652 0.014096782 0.031838123 0.018415831
000030 32 0e 0a 3d 1a b3 5c bc e8 69 3c 3c 63 b2 f4 3c
       0.033704944 -0.0134704355 0.011499859 0.029870218
000040 78 e9 ff 3c 6e fe a4 3c 58 f4 c1 3a fa c9 06 3d
       0.031239256 0.020140853 0.0014797552 0.032907464
000050 20 4b 92 3b 69 f3 52 3b 94 12 77 3c 8a 1f bd bb
       0.004464522 0.003218854 0.015080113 -0.005771582
000060 f9 56 36 3c 28 62 b8 bc 0d 54 2b 3c 6f 88 0b bc
       0.011129134 -0.022507742 0.010457051 -0.008516415
000070 ae 66 9e 3c bf 74 a8 3c c5 92 b6 bc f2 14 f8 3c
       0.01933607 0.020563481 -0.022286782 0.030283425
000080 8d 1a 41 3c 3e d4 85 3c f2 77 00 3c 75 ff d6 3c
       0.011786115 0.016336557 0.007841097 0.026244858
000090 dd 2c 34 bc 66 04 b7 3b ff ac ee 3c 02 9f e1 3b
       -0.010997024 0.005585241 0.029135225 0.0068854103
0000a0 ec 18 3d 3c c8 1c ae 3b 95 8c b1 ba 6e 12 2e bc
       0.011541586 0.0053134896 -0.0013545925 -0.010624511
0000b0 f7 e7 f7 3c e5 55 04 bc cf 93 f8 3c 45 89 e6 bb
       0.030261977 -0.0080771195 0.030343918 -0.007035407
0000c0 04 68 84 bb 8a dd c2 3c 12 a5 72 bc 14 af df 3b
       -0.00404072 0.023787279 -0.014809864 0.006826291
0000d0 77 e4 dd 3c 57 f4 c0 39 8e 98 59 bc fa 6c 9e 3c
       0.02708648 0.0003680314 -0.013281001 0.019339073
0000e0 89 08 db bb d7 e5 81 3b 7e cc f3 3c ef 96 b1 3b
       -0.006684367 0.0039641666 0.029760595 0.005419604
0000f0 c1 c3 94 3c 4e 9b 58 3c d9 dc 2f bc e4 96 ec 3c
       0.018159749 0.013220621 -0.0107338065 0.028880544
000100 e8 37 d2 3a 86 27 2b bc cc 58 1a bb 1c 7f 29 3c
       0.001603839 -0.010446435 -0.0023551462 0.010345247
000110 b5 14 16 bc 35 b3 97 3b da 55 a2 3c 4b 7a c6 bc
       -0.00916021 0.0046295174 0.019816328 -0.024228236
000120 a8 19 83 3c ee c3 cc bc 39 dc 21 bc 7d 7d 9a bc
       0.016003445 -0.02499577 -0.009879165 -0.018858666
000130 bb 1e 95 bc 55 e3 38 bc 64 76 82 bb af e6 22 3c
       -0.01820313 -0.011284669 -0.0039813984 0.009942695
000140 1c 91 09 3d 81 1a a8 bc 31 1f 0a 3d 6a 70 c7 3b
       0.033585653 -0.02052045 0.033721153 0.006086399
000150 78 4a 63 bc af 1b e2 3c 59 b8 23 3c 3b 62 0c 3d
       -0.013872735 0.027601091 0.009992682 0.034273367
000160 21 51 0e bc 9a 7a f7 3b 77 a7 99 bc a3 ab 29 3b
       -0.008686335 0.007552457 -0.018756611 0.0025889657
000170 b8 b4 9f bc e5 c2 51 3c 83 d9 96 3c f1 e2 58 bc
       -0.019495353 0.012802814 0.018414265 -0.013237701
000180 dc 28 97 bc ae 00 1b bd ea 79 4f ba a4 e7 d5 3b
       -0.0184521 -0.037842445 -0.000791459 0.006527858
000190 96 db ed bc 10 92 73 3c 16 64 ff bc 9f b9 c6 bc
       -0.02903537 0.014866367 -0.031175654 -0.024258433
0001a0 6a 5a 0c 3d ff 73 06 3d 10 76 bc 3c 8d 0a 43 3c
       0.034265913 0.032825466 0.023005515 0.011904371
0001b0 1d f7 58 b9 b8 3e d0 bb 0c 2c d3 3c 93 e6 66 bb
       -0.00020691422 -0.006355133 0.02577784 -0.0035232648
0001c0 c6 00 2a 3c 2a 65 38 3c 9e a0 bc bc 25 e5 4e 3c
       0.010376161 0.011254588 -0.023025807 0.0126278745
0001d0 f4 aa 09 3c ee 93 cf 3c 9d 24 c9 3c cb f9 c4 bc
       0.008402575 0.025339093 0.024553591 -0.024044892
0001e0 4e 77 1f bc 42 60 8e 3c 8d 0a d3 bc 80 f1 4b bd
       -0.009733034 0.017379884 -0.025761867 -0.04979086
0001f0 c5 ee b5 bb 39 b9 8e bc 34 8e 95 bc 89 d3 31 bd
       -0.005552145 -0.017422305 -0.018256284 -0.043414626
000200 cd 4c 8d bc 8a a5 99 bc 8c dd 7e 3c 31 bf 2d bc
       -0.017248536 -0.018755693 0.015555751 -0.010604666
000210 e2 e7 b8 3a a5 95 56 3c cd 97 b2 3c 5e a9 9b bb
       0.0014107192 0.0130972015 0.0218009 -0.0047504148
000220 12 9d 6a 3c be 99 bf bc 3a 00 91 bc 80 75 50 bc
       0.014319675 -0.02338874 -0.017700303 -0.012723327
000230 f5 33 05 bb 3a 4d b5 3c be 0c b0 3c bc 12 02 3d
       -0.0020325158 0.022131551 0.021490451 0.031756148
000240 03 9d 22 3d 98 84 8b bb dc 58 2f 3c 9a 5e b7 3b
       0.03970052 -0.0042577498 0.010702338 0.005595994
000250 14 63 2a bc fa e0 32 bd b6 39 74 bd 11 4a 7a bd
       -0.010399599 -0.043671586 -0.05962535 -0.06110579
000260 9e f9 9c bd 7f 41 85 bd d9 76 8d bd 5e 25 9f bd
       -0.07664798 -0.06506633 -0.06907434 -0.07770799
000270 21 c0 ab bd 38 0f 11 bd 79 7e 68 bd 3e 73 37 3a
       -0.08386255 -0.035414904 -0.05676124 0.00069980684
000280 f0 c5 14 3c 24 a5 af bc 8e f1 02 bc e7 5a d4 3c
       0.009080395 -0.02144105 -0.007992161 0.025922252
000290 c8 3a bd 3c d1 b7 4a 3c 61 56 70 3c 2d 75 e2 ba
       0.023099318 0.012372927 0.014669032 -0.0017277353
0002a0 08 5e f2 3c 06 01 8b bc 8f 1f 94 3b 45 ab 93 3c
       0.029585853 -0.016968261 0.0045203636 0.018026004
0002b0 88 28 c5 3c fe 8a 15 bc ed ef e2 bb f7 86 94 3a
       0.024067178 -0.009127377 -0.006925574 0.0011331727
0002c0 a0 04 be bb 0e 1c 86 bd af 01 8f bd 86 a9 91 bd
       -0.005798891 -0.0654832 -0.06982743 -0.07112412
0002d0 75 0e dd bd cc 08 dd bd c5 df fc bd 2f a5 e6 bd
       -0.10793773 -0.107926935 -0.12347368 -0.11261975
0002e0 c8 f2 cb bd 84 d7 4b bd 2b 5b 00 bc d3 16 76 3c
       -0.09958416 -0.04976608 -0.007834236 0.01502009
0002f0 44 07 97 3b 50 b4 16 bc f2 0e 08 3d 63 d9 af 3c
       0.0046090204 -0.009198263 0.033217378 0.021465963
000300 4d 84 3f bc 6c 18 d7 bb 29 2f 02 3c ca 04 3e 3a
       -0.011689258 -0.0065641906 0.007945814 0.00072486384
000310 c8 45 fa 3c f0 31 86 bc 92 b8 d9 3c a6 73 09 bc
       0.030550852 -0.016381234 0.026577268 -0.008389389
000320 41 ab cb 3b e5 00 f1 bb 80 d6 73 3c d1 76 ba 3c
       0.0062154834 -0.007354843 0.014882684 0.022761734
000330 04 fc 15 bd 0f ca 04 bd e2 42 9b bd 0f 25 f7 bd
       -0.036617294 -0.03241926 -0.07581116 -0.12067615
000340 2c 53 05 be a7 ed 0d be 04 bc 0b be b9 ab 75 bd
       -0.13020009 -0.13860188 -0.13645941 -0.05997822
000350 0f b7 79 bd 99 e4 a6 bc 5d dc af bb 7a 4b d4 bc
       -0.060965594 -0.020372676 -0.0053668455 -0.025914896
000360 3a 8b 93 3c 76 e9 df 3c ea ad d2 3c 1f b0 15 3a
       0.018010724 0.027333003 0.025717694 0.0005710143
000370 e1 ae 03 3d a5 1e 9b bb bb 7c a6 3c 27 3d e9 3c
       0.0321492 -0.0047338777 0.020323148 0.028471543
000380 42 75 33 bb 99 51 74 bc 21 5d a3 3c 1b d7 5b 3c
       -0.0027383124 -0.0149120325 0.019941868 0.013417984
000390 58 79 0d 3d 7e eb 86 3d 67 45 fc 3c 1c 51 a5 3c
       0.03453955 0.06587885 0.030794812 0.020180278
0003a0 01 6d e5 bc 70 c4 06 bd 48 97 ec bc 8e e6 a0 bd
       -0.028006079 -0.03290218 -0.02888073 -0.07856475
0003b0 a6 90 98 bd 4a 7f cb bd 54 eb df bd 26 9e 94 bd
       -0.074494645 -0.09936388 -0.10933557 -0.07256727
0003c0 9f 97 17 bd 24 e9 af bc f3 e9 cb 3b f9 63 70 3c
       -0.03700983 -0.021473475 0.0062229573 0.014672273
0003d0 6a 98 15 3d 8a 80 34 3c 30 85 9b 3b 26 b1 ca 3c
       0.036522307 0.011016974 0.004746102 0.024742674
0003e0 50 a9 42 3c 7f 24 28 3c 8f 4a 90 bc 6a 62 b0 3c
       0.011881188 0.010262608 -0.017613677 0.021531302
0003f0 8f 52 05 3d fa 0d 8a 3c 45 8d 34 3d 59 d2 b1 3d
       0.032549437 0.016852368 0.044080038 0.08682699
