data/linear_4.weight.npy (npy, 8128 bytes, 1 tensors)

array (column-major) f4 [200, 10]
00000000: b11d 723c 4b3d 723d 4f07 453d be4e 7d3e
00000010: bcd9 cabd be0e b63d deba 4fbd f6cb 193d
00000020: 98ca 263e e208 9b3c 8c3b 053d 675a d13c
00000030: 6f4e 0b3e f040 4fbd bcfd 583d 8652 23bd
00000040: 011c a3bd 28e2 b1bc 0186 b93d 567e 4ebd
00000050: 4b30 27be e6f7 87bd c49d 35be 400e 28be
00000060: aef8 14bd a3c8 6fbd ef61 d3bc c6c6 52bd
00000070: 33fb e7bd b4f1 3ebc 64c0 b9bd 88d5 e4bc
00000080: 3754 513c f7a0 333e b615 1fbd 11c5 82bd
00000090: 291e 983c c0f4 d03d ed37 dfbd 5178 c33d
000000a0: e900 88bd 0dfe cfbd d142 f2bc 6ae8 83bd
000000b0: b32b 43be 1e31 0d3b e15c 44bd f822 553d
000000c0: f402 813e 98af a0bb eaff ecbd 92e7 d4bd
000000d0: 5950 683b 2b50 8dbd cf46 a7ba 1947 eb3c
000000e0: 1bb3 853d 7913 c5bc c297 89bd 612e 4a3c
000000f0: c76c fa3d 3bd9 5fbd 881c 7dbd 6c40 1abe
00000100: ada7 8a3e ac67 0abd 48ac 3fbe b41a c03d
00000110: 99be 4c3e 0011 a2bd 9bf4 c0bb a002 333d
00000120: ae75 b73c c2d8 03be db2e bd3d d5fa 5ebb
00000130: b984 793d 8228 76bd ebf4 5f3e 5cdb e9bd
00000140: 5cfa 6bbd 1acd 02be 0eea 553d 702e 323c
00000150: 1f86 4dbd 7e12 b9bb 0fa1 5b3d debf 43bd
00000160: c0c7 56bd 62f8 6fbc c3f0 8fbd 7784 a4bd
00000170: e0e1 eebb 556a e83c d751 08be 7db1 21bd
00000180: 1833 053e 2a0d 1ebc 6d69 0dbe ab0d 81bb
00000190: 920a ef3d 3206 3cbd efe2 8ebd 3bd4 18bd
000001a0: ca7f 7fbd 6f18 a4bd caa9 98bc 433a 03be
000001b0: 0882 fcbd 0826 963c a43d 0a3e 429a 6e3c
000001c0: 0b0b 303d c067 b7bd 8424 eebd 1a4e cb3d
000001d0: 9abc 82bb 3a51 463d f432 b6bd 2933 f2bd
000001e0: 510d 84bd f44e 0fbc c167 e9bd d874 223e
000001f0: 63fb 983d 5153 12bc df5a 4cbc aed7 fcbc
00000200: c1d8 9fbd 2fbe 08be 6fe1 553a ef38 13be
00000210: 2e5b 2e3e ccd4 66bd eb91 0b3e cc3b 483e
00000220: 326e 7e3d 0024 163e eade c83c 7bc6 10be
00000230: bb98 783d 056d 4ebd 1267 613c 6af1 23be
00000240: 92a7 9bbd 1dc7 4bbd 1da7 703e 92a8 75be
00000250: 103d d0bd ea4c e9bc 4a16 74bd 8ba4 e0bc
00000260: 792e 40bd 534a ff3b 7bfd ed3d d401 5cbd
00000270: e6d7 73bd 4fb1 483e ad02 92bd bf50 803d
00000280: 7101 173e 3b29 bdbd 7552 43bd e077 393e
00000290: 50e2 f7bd 7c62 ff3c 75f3 0a3d e64f 7ebd
000002a0: 8796 03bc 297d 03be 6699 78bc 0211 523e
000002b0: 1578 22be 72cd 96bd a9b7 c2bd 21fd e2bb
000002c0: 448d 22be 52d4 42bd e945 903d dfba 16be
000002d0: fc1f 97bd ad5f 93bd 4701 dc3b d2f9 43bc
000002e0: b91e 163e 34e0 113d 10b5 9d3d e3c4 f1bd
000002f0: 617e 06be 8192 c33c 46e9 f9bc 3c23 d53d
00000300: bde2 c13d 6fe6 4abd 29de 29be 8f89 04be
00000310: 726b 203d 7dfc cd3d a26f 60bc 4729 d4bd
00000320: 3aa7 353e bfd2 d2bd 4c7d e53c da2e 8fbe
00000330: 0ea9 12bc 23b8 a73d bd3f d33d 5a2c a7ba
00000340: f59c 253e 2882 1ebd 4232 27bc 37f9 c0bd
00000350: af5a 0fbe f67f 1fba d484 c1bd 4d6d 23be
00000360: fff4 be3b dcf0 913d 17c1 b43d 3d7d ba3d
00000370: 4cc2 593e 71d6 2c3e 62f4 173e ba3f f33d
00000380: 1e2e 613d 89b2 93bc 57c3 02bd 72fb 29be
00000390: 22ad 0fbe 5215 833d d71a 483e ec42 e8bd
000003a0: 1ee5 d93d 3f81 f03c eea1 00be 86f8 cd3d
000003b0: 59d3 c3bd 5719 c43c 3ac9 31be 8414 c13d
000003c0: 23a8 8c3d 328e d53d 286b 153c dfba 25bd
000003d0: 7bff fb3d 2817 373d 6246 21bd c534 40bc
000003e0: 7b04 d4bc 09d7 87bc a882 c63d 0b06 1c3d
000003f0: 7fb5 31be 9330 563d 9f81 3cbd ab4e fcbc
0.014777587 0.059140485 0.048102673 0.24737069 -0.09904811 0.088895306 -0.05071532 0.037548028
0.16288221 0.018925134 0.03252749 0.025555803 0.13604139 -0.05059904 0.052976355 -0.039873622
-0.07964326 -0.021714285 0.09058762 -0.050413452 -0.16327016 -0.0663908 -0.17735964 -0.16411686
-0.036369972 -0.05854095 -0.025803534 -0.051459096 -0.11327209 -0.011654306 -0.09069899 -0.02793385
0.012776426 0.17541872 -0.038839065 -0.06385244 0.018569069 0.10202932 -0.10899339 0.09544433
-0.066407986 -0.10155878 -0.029572876 -0.06440814 -0.19059639 0.0021544169 -0.04794014 0.052035302
0.25197566 -0.004903745 -0.11572249 -0.10395731 0.0035448282 -0.069000565 -0.0012762191 0.028720425
0.06528302 -0.024057137 -0.06718399 0.012340159 0.12227779 -0.054650526 -0.061794788 -0.15063637
0.2708105 -0.033790275 -0.18718064 0.09380093 0.19994582 -0.07913399 -0.0058885342 0.043703675
0.022394981 -0.12875655 0.092374526 -0.003402402 0.06091759 -0.060097225 0.21870773 -0.114187926
-0.05761181 -0.12773553 0.052225165 0.010875329 -0.050176736 -0.0056479564 0.053620394 -0.0477904
-0.05243659 -0.014646621 -0.070283435 -0.08033078 -0.00729011 0.028371016 -0.1331247 -0.039475907
0.13007772 -0.009646693 -0.13809748 -0.003938397 0.11671938 -0.045904346 -0.06976878 -0.037311774
-0.06237773 -0.08012473 -0.01863565 -0.12815194 -0.12329489 0.018328682 0.13500077 0.014563145
0.04297928 -0.089553356 -0.116280586 0.09927006 -0.003989768 0.048417307 -0.08896437 -0.11826164
-0.064478524 -0.008746851 -0.113967426 0.15864885 0.07469823 -0.008930997 -0.012472837 -0.030864563
-0.078050144 -0.133538 0.00081588974 -0.14377187 0.1702697 -0.056355283 0.13629882 0.1955406
0.06211681 0.1466217 0.024520356 -0.14138214 0.06069253 -0.050396938 0.013757484 -0.16010061
-0.07600321 -0.049750436 0.23501249 -0.23990086 -0.10167897 -0.028479058 -0.05959157 -0.02742221
-0.04691932 0.0077908426 0.11620613 -0.05371268 -0.05953207 0.19598888 -0.071294166 0.06265401
0.14746644 -0.0923638 -0.04768606 0.18112135 -0.121037126 0.03117489 0.033923585 -0.062087916
-0.008031494 -0.12840714 -0.015173292 0.205143 -0.1586612 -0.07363404 -0.09507687 -0.006927148
-0.15874201 -0.047565766 0.07044584 -0.14719723 -0.073791474 -0.07195983 0.0067140195 -0.011961417
0.14660157 0.035614207 0.077005506 -0.11805131 -0.13134147 0.02387357 -0.030506741 0.10407111
0.09467075 -0.049536165 -0.16588654 -0.129431 0.039164968 0.10057924 -0.01369849 -0.103594355
0.17739573 -0.10294103 0.028013848 -0.27965432 -0.008951439 0.08189418 0.103148915 -0.0012754307
0.16173156 -0.038698345 -0.0102048535 -0.09422534 -0.13999437 -0.00060844363 -0.09449163 -0.15959664
0.0058275457 0.071260184 0.088258915 0.091059186 0.21265525 0.16878678 0.14839318 0.11877389
0.05497562 -0.018029468 -0.03192457 -0.16599825 -0.14030889 0.06400551 0.19541489 -0.11340889
0.10639404 0.029358504 -0.12561771 0.10057168 -0.09561796 0.023937864 -0.17361918 0.09427741
0.06868007 0.10427512 0.009119786 -0.040461417 0.123045884 0.044699818 -0.039373763 -0.011731331
-0.025881043 -0.016582029 0.096928895 0.0380917 -0.17354392 0.052292418 -0.046022054 -0.03079923
