data/linear_2.weight.npy (npy, 8128 bytes, 1 tensors)

array f4 [10, 200]
0	0x3ddb5234	0.107090384
1	0xbe39fbee	-0.1816251
2	0xbdc139f0	-0.09434879
3	0xbd940409	-0.07227332
4	0xbe085023	-0.1331182
5	0xbe30f419	-0.17280616
6	0xbd9e5a95	-0.07732121
7	0x3d1baa77	0.038004365
8	0x3e3eb908	0.18625271
9	0xbe7982ff	-0.24366377
10	0x3d6f42ef	0.058413442
11	0x3e07803b	0.1323251
12	0xbcaca4af	-0.021074621
13	0xbcfe244c	-0.031023167
14	0x3d2eccd4	0.042675808
15	0x3d46e159	0.048554752
16	0x3e051f56	0.13000235
17	0x3d71b086	0.059006236
18	0xbcee7c3e	-0.029111978
19	0x3d079818	0.033104032
20	0x3eabcd39	0.3355501
21	0x37976918	1.804954e-05
22	0x3e76494a	0.24051395
23	0xbe082396	-0.13294825
24	0xbc956d66	-0.018240642
25	0xbce501e3	-0.027955001
26	0xbb8c541b	-0.004282487
27	0x3e22d6e3	0.15902285
28	0xbd93a068	-0.072083294
29	0x3d192350	0.037387192
30	0x3e4efee8	0.20214427
31	0x3e4b52e5	0.1985584
32	0x3cd162b8	0.025559768
33	0xbe150e7a	-0.14556304
34	0xbe55de86	-0.20885667
35	0xbe38f260	-0.18061209
36	0x3e489543	0.19588189
37	0x3e0fa7f0	0.14028907
38	0x3dbd2a54	0.09236589
39	0xbd1b4efd	-0.037917126
40	0xbdeb6387	-0.11493593
41	0xbdd2cb36	-0.10292666
42	0x3d67f4eb	0.056630056
43	0xbdbe7c94	-0.09301105
44	0x3d916c58	0.07100743
45	0x3cf743f3	0.030183768
46	0xbc28ac69	-0.010295012
47	0xbd0d7d2d	-0.034543205
48	0xbdddc2a6	-0.10828142
49	0x3e6d6ea7	0.23186742
50	0xbe0cad8d	-0.1373808
51	0xbd978224	-0.07397869
52	0x3d2e3b9f	0.042537328
53	0xbd5dd7f4	-0.054161027
54	0x3c3a8dd4	0.0113863535
55	0xbef98bad	-0.48739377
56	0xbe07b454	-0.13252383
57	0xbe25b80b	-0.16183488
58	0x3bb39216	0.0054800613
59	0x3e6b2fcd	0.22967453
60	0xbdaf8a8c	-0.085713476
61	0x3dd06725	0.10175923
62	0xbd9691f4	-0.07352057
63	0xbcb488f0	-0.022037953
64	0x3e875506	0.26432055
65	0xbdb8a83e	-0.09016465
66	0x3e0043db	0.12525885
67	0xbe53f59b	-0.2069916
68	0x3d43ec71	0.04783291
69	0xbc43cf69	-0.011951306
70	0x3b48630d	0.0030576617
71	0x3cc10918	0.023563907
72	0xbc8f19ac	-0.017468296
73	0x3d734418	0.05939111
74	0x3c8928c9	0.01674308
75	0x3c5c9d45	0.01346523
76	0xbd8c9c2b	-0.06865724
77	0xbddfa506	-0.109201476
78	0x3d18fc1b	0.0373498
79	0x3d42e136	0.04757806
80	0xbd00dcad	-0.031460453
81	0xbe830637	-0.2559068
82	0xbe0b06a3	-0.1357675
83	0xbe9e726d	-0.30946675
84	0xbd43068f	-0.047613677
85	0xbca3e795	-0.020007888
86	0xbd62ded6	-0.055388294
87	0x3e097586	0.13423738
88	0x3e4c961f	0.19979142
89	0x3e1a257a	0.15053359
90	0x3d814b9d	0.0631325
91	0x3e297f02	0.16552356
92	0x3b9fac92	0.004872867
93	0xbdbc3430	-0.091896415
94	0x3d874c36	0.06606333
95	0x3cec42ff	0.02884054
96	0x3e097109	0.13422026
97	0x3e1e472b	0.15456836
98	0x3cee51c8	0.02909173
99	0x3e052756	0.13003287
100	0x3a1d13e0	0.00059920363
101	0xbc1d4144	-0.00959808
102	0x3e0967a5	0.13418444
103	0xbe84908b	-0.25891528
104	0x3e11fbff	0.14256285
105	0x3df16287	0.11786371
106	0xbe2a6e26	-0.16643581
107	0xbe625080	-0.22101021
108	0xbd1119bb	-0.03542493
109	0x3e1f4450	0.15553403
110	0xbe898dd8	-0.2686603
111	0x3da3aa76	0.07991497
112	0xbd449e76	-0.048002683
113	0x3e39134a	0.18073764
114	0xbdd88a66	-0.105732724
115	0x3d04c9a0	0.032418847
116	0xbe8b7f6c	-0.27245653
117	0x3e080360	0.13282537
118	0x3b84eaf1	0.0040563275
119	0xbd9d0f6d	-0.07668958
120	0x3e9f3149	0.3109229
121	0xbcb2dc89	-0.021833675
122	0x3cbab2fd	0.022790426
123	0xbc234ad4	-0.009966571
124	0xbd5056ae	-0.050863914
125	0x3def84e5	0.116952695
126	0x3e6ab73d	0.22921462
127	0x3d9c3c7d	0.07628725
128	0xbd3c8026	-0.04602065
129	0x3c7cee25	0.015437637
130	0x3d5ff92d	0.054680992
131	0x3c8beadd	0.017079765
132	0x3ecff6ba	0.40617925
133	0xbd8d1070	-0.06887901
134	0xbcccb1eb	-0.024987182
135	0xbd8c8420	-0.06861138
136	0x3d33d1dd	0.043901313
137	0x3d0b5b0e	0.034022383
138	0x3d5c3ecc	0.053770825
139	0x3cc653f0	0.024209946
140	0xbd93111b	-0.07180997
141	0x3e29c9ec	0.16580933
142	0x3de52776	0.11189167
143	0x3e3a94b3	0.18220787
144	0x3de1e8d8	0.110307395
145	0x3c9b4090	0.018951684
146	0x3cec8745	0.028873095
147	0x3d2e6f05	0.042586345
148	0x3e032665	0.12807615
149	0x3a0cdb54	0.00053732586
150	0xbd8950f3	-0.06704893
151	0x3d7b1903	0.06130315
152	0x3d706d5d	0.058698047
153	0xbd38c513	-0.04510982
154	0x3b7aa721	0.003824659
155	0xbda584f1	-0.08081997
156	0xbd424371	-0.0474276
157	0xbe331503	-0.17488484
158	0x3da93bd8	0.082633674
159	0xbd854ae5	-0.065084256
160	0xbd163963	-0.036675822
161	0xbd08c973	-0.033395242
162	0xbc287998	-0.010282896
163	0x3ce05942	0.027386311
164	0x3eb46bca	0.35238487
165	0xbe3fd8e9	-0.18735088
166	0xbd9ef5c5	-0.077617206
167	0xbe1cb4e7	-0.15303384
168	0xbdd7205c	-0.10504219
169	0xbda01892	-0.078171864
170	0x3cdbd1f2	0.026833508
171	0xbc90d657	-0.01768033
172	0xbdab286c	-0.08357319
173	0xbe3db0fb	-0.18524544
174	0xbe4b5047	-0.19854842
175	0xbdf6f728	-0.1205886
176	0xbd24ad46	-0.04020431
177	0xbd428c62	-0.04749716
178	0xbe0ccbfa	-0.13749686
179	0x3dbcf191	0.09225763
180	0xbdfa8b34	-0.12233582
181	0xbd9edc43	-0.07756855
182	0xbdbd80d4	-0.09253088
183	0xbca9898d	-0.020695472
184	0xbd86ade4	-0.06576136
185	0xbdb2cc29	-0.08730347
186	0xbd50114c	-0.050797746
187	0xbe2615c0	-0.16219234
188	0xbab60d8f	-0.0013889539
189	0x3db3aca1	0.08773161
190	0xbe46cbd8	-0.19413698
191	0x3cb688de	0.02228206
192	0x3deec5a9	0.116587944
193	0xbd166d64	-0.036725417
194	0x3e0c640b	0.13710038
195	0xbe8442f3	-0.25832328
196	0x3c9bb169	0.019005494
197	0xbe57f37a	-0.21088973
198	0x3e7d358c	0.24727458
199	0xbe4724e3	-0.19447665
200	0xbda36ca7	-0.07979708
201	0x3e4633ff	0.19355772
202	0x3e3b6004	0.18298346
203	0xbb818f79	-0.003953871
204	0xbd7bc046	-0.061462663
205	0xbdf9cf81	-0.12197781
206	0xbe344170	-0.17603087
207	0xbd9912d5	-0.07474295
208	0x3d346b70	0.044047773
209	0xbe2ae423	-0.1668859
210	0xbd999ecb	-0.075009905
211	0x3d4e0b34	0.050303653
212	0xbd2d63e7	-0.042331602
213	0x3e1cd7cd	0.15316696
214	0xbad030d1	-0.0015883689
215	0xbe0d9fc8	-0.13830483
216	0xbe2b9077	-0.16754328
217	0x3e8bf1b1	0.27332833
218	0x3e03590c	0.12826937
219	0xbe31f56b	-0.17378776
220	0xbd90a1af	-0.07062089
221	0xbe0a7d2e	-0.13524315
222	0xbbd1c3c3	-0.0064015104
223	0xbcac908e	-0.021065023
224	0x3e2f1e9f	0.17101525
225	0xbdd5047c	-0.10401246
226	0xbde5b1a9	-0.112155266
227	0xbd888e3d	-0.06667755
228	0xbe77b302	-0.2418938
229	0xbe153cb5	-0.14573939
230	0xbbcfbf0e	-0.006339914
231	0xbe4767a8	-0.19473135
232	0xbe19b4f1	-0.1501043
233	0xbd381e06	-0.044950508
234	0x3e5ba354	0.21449023
235	0xbdf421f1	-0.11920536
236	0xbe75e579	-0.24013318
237	0x3d9f5b7f	0.07781123
238	0xbd58dc97	-0.052944746
239	0x3e45c8bc	0.19314855
240	0xbe4125dc	-0.18862098
241	0xbd753dcb	-0.059873383
242	0xbd25c9ec	-0.04047577
243	0x3f05c6ad	0.5225628
244	0xbe1a68a4	-0.1507898
245	0xbd95b1e3	-0.0730932
246	0x3ccbd1e8	0.024880365
247	0x3e95288e	0.29132503
248	0x3e595d54	0.21227008
249	0xbe12a0b5	-0.14319117
250	0xbc2f0b5e	-0.0106838625
251	0x3cead27e	0.028664824
252	0x3c839097	0.016060157
253	0x3b8e339c	0.0043396484
254	0xbd8484dc	-0.064706534
255	0xbdb9c79a	-0.09071274
