data/linear_1.weight.npy (npy, 120128 bytes, 1 tensors)

array (column-major) f4 [150, 200]
0	0xbd81f01e	-0.06344627
1	0xbcd566ef	-0.02605006
2	0x3c3bcf65	0.011463021
3	0xbd40b578	-0.047048062
4	0xbd388d34	-0.045056537
5	0x3d6ec9b5	0.05829783
6	0x3c5f77d4	0.013639409
7	0xbcbaacf1	-0.022787543
8	0x3d57a75b	0.052649837
9	0xbd3934ef	-0.045216497
10	0xbd17117f	-0.03688192
11	0x3d4de3b6	0.05026599
12	0xbd508161	-0.050904635
13	0xbbc9caa5	-0.0061581903
14	0x3e0334d2	0.12813118
15	0x3d14ccbe	0.03632807
16	0x39388380	0.00017596595
17	0xbdda24f3	-0.10651579
18	0xbcecea2a	-0.028920252
19	0x3cfeb2c5	0.031091103
20	0xbde5586f	-0.11198508
21	0xbb0662ea	-0.0020505735
22	0xbdc3bbd9	-0.095573135
23	0xbddc0f03	-0.10745051
24	0xbc817cd8	-0.0158066
25	0xbd9c65b1	-0.076365836
26	0x3cc114dc	0.023569517
27	0xbcf396ce	-0.029734995
28	0x3d245d42	0.040128
29	0xbde72f0a	-0.11288269
30	0xbc7f8ba0	-0.015597254
31	0x3c9b7feb	0.018981894
32	0xbb0aee44	-0.0021199146
33	0xbd8e32b3	-0.06943264
34	0xbd06bfcc	-0.032897756
35	0xbcdb88dc	-0.026798658
36	0x3d5ea95e	0.05436074
37	0xbcad457b	-0.021151295
38	0x3db15418	0.08658618
39	0xbc7d22ee	-0.015450222
40	0x3d76ba15	0.060236055
41	0x3d75f440	0.060047388
42	0xbc386e2f	-0.011256739
43	0xbe719c90	-0.2359488
44	0xbd7cf76e	-0.061759405
45	0x3d3829ec	0.044961855
46	0xbdc6a4e2	-0.09699418
47	0xbe041a9f	-0.1290078
48	0xbd499f01	-0.049223904
49	0xbdac921b	-0.08426305
50	0x3c17d70e	0.009267582
51	0xbd41dbcb	-0.04732875
52	0x3d3f542e	0.04671114
53	0x3c7ab406	0.01530171
54	0x3b084f35	0.0020799164
55	0xbcb80bb9	-0.022466527
56	0xbcdeaa84	-0.027180918
57	0xbdeeef34	-0.11666718
58	0x3bf0e689	0.0073517007
59	0x3c263201	0.010143758
60	0xbdcd7796	-0.10032575
61	0xbc948e8e	-0.018134382
62	0xbe150592	-0.14552906
63	0xbcfb87dc	-0.030704431
64	0x3da0abd4	0.078452736
65	0xbccc4331	-0.024934383
66	0xbda5a8df	-0.0808885
67	0xbccf60f1	-0.02531478
68	0x3d5bb63d	0.053640593
69	0xbd338431	-0.04382724
70	0x3def8c79	0.11696715
71	0xbd9e30d3	-0.07724156
72	0xbcd40d28	-0.02588518
73	0xbd876303	-0.06610682
74	0x3d618e51	0.055067364
75	0x3b4bbf9a	0.0031089545
76	0xbcb6d1b1	-0.022316786
77	0xbcfb01f0	-0.030640572
78	0x3d0ab47c	0.03386353
79	0xbd8d7501	-0.06907082
80	0xbd2ace35	-0.04170056
81	0xbd089f03	-0.03335477
82	0xbd9bd6b6	-0.07609312
83	0x3ccf6a57	0.025319261
84	0x3dc03521	0.093851335
85	0xbc3dcc7f	-0.0115844
86	0x3c80868f	0.015689163
87	0x3c3e7503	0.011624577
88	0xbd5e3c9d	-0.054257024
89	0xbc38bc27	-0.011275328
90	0x3b7000b1	0.0036621506
91	0x3e144576	0.14479622
92	0xbe00ad62	-0.1256614
93	0x3d0c9ba0	0.034328103
94	0x3d8337f2	0.06407155
95	0xbd9ce9cf	-0.07661783
96	0xbd76dc50	-0.0602687
97	0xbc9024c2	-0.017595652
98	0xbd98b62b	-0.07456621
99	0xbdb6adef	-0.08919894
100	0xbd1b2ee4	-0.037886515
101	0xbddb3485	-0.10703377
102	0x3ce3051d	0.0277124
103	0xbd021724	-0.03176035
104	0x3c10705f	0.008815854
105	0xbd584118	-0.052796453
106	0x3d337fa7	0.04382291
107	0x3ca08ddb	0.019598892
108	0x3daa0c7a	0.08303161
109	0xbbedfb16	-0.007262598
110	0x3dffc421	0.124885805
111	0x3d2bd1c2	0.041948088
112	0x3e3862da	0.18006459
113	0xbddeddab	-0.108821236
114	0x3d1c91d6	0.038225017
115	0x3d80fa21	0.06297708
116	0xbcdd05e0	-0.02698034
117	0x3dabc951	0.083880074
118	0xbe548ae5	-0.20756109
119	0x3da36b11	0.07979406
120	0x3cf8db95	0.030378142
121	0xbd8a70fa	-0.0675983
122	0x3d87bb2a	0.066274956
123	0x3dedd1ce	0.11612283
124	0xbca4147d	-0.0200293
125	0xbd0a457f	-0.033757683
126	0x3d498a9a	0.049204446
127	0xbd915ef3	-0.07098188
128	0xbd4c60e3	-0.049897086
129	0xbd83eede	-0.06442045
130	0xbb94b250	-0.004537858
131	0x3c210aa6	0.009829199
132	0x3c4e6560	0.012597412
133	0x3d3aaab5	0.045572955
134	0x3cda7692	0.026667867
135	0xbd4d4c02	-0.050121315
136	0x3c96e2a9	0.018418627
137	0xbd0ed10e	-0.03486734
138	0x3c8db44a	0.017297883
139	0x3dc5deca	0.09661634
140	0x3cbbcd40	0.02292502
141	0xbe02e83d	-0.12783904
142	0xbe3f4768	-0.18679583
143	0xbdd23fb7	-0.10266059
144	0xbbad4e00	-0.0052888393
145	0x3d756978	0.059915036
146	0xbd116efa	-0.035506226
147	0x3d6c8426	0.057743214
148	0xbd981590	-0.07425988
149	0x3da345d2	0.079723015
150	0xbcccfc98	-0.02502279
151	0xbca09eca	-0.019606967
152	0xbcbe9276	-0.023263197
153	0xbe47dd89	-0.19518103
154	0xbdb290e5	-0.08719043
155	0x3cc49d7e	0.02400088
156	0xbd83d5ba	-0.064372495
157	0xbd9e4ba0	-0.07729268
158	0xbb914d72	-0.004434281
159	0x3e4ba68c	0.19887751
160	0xbb85f17c	-0.004087625
161	0xbce2a579	-0.027666794
162	0xbd92a82f	-0.07160985
163	0xbdb0a921	-0.08626009
164	0x3e109f6c	0.14123315
165	0x3c1f35ca	0.009717414
166	0x3cf1d739	0.029521571
167	0x3e281d65	0.16417463
168	0x3df5d1bf	0.120028965
169	0xbd07a01d	-0.03311168
170	0xbd7f5416	-0.06233605
171	0xbd9cf691	-0.07664216
172	0xbc05f41f	-0.008175879
173	0x3d77528c	0.060381457
174	0x3d948948	0.07252747
175	0xbe2e9359	-0.17048396
176	0xbb940402	-0.0045170793
177	0xbcdfd6e9	-0.027324157
178	0x3bc70913	0.00607408
179	0xbdbdcb6c	-0.09267315
180	0xbd672f67	-0.05644169
181	0xbc5ff83a	-0.013670022
182	0x3c12d685	0.008962278
183	0x3c5201df	0.012817829
184	0xbdcc14c3	-0.099648975
185	0x3e1a6e8a	0.1508123
186	0xbdb30cc3	-0.087426685
187	0xbd480580	-0.04883337
188	0xbe19bd64	-0.15013653
189	0xbc0adad5	-0.008475025
190	0xbb64e903	-0.0034928925
191	0xba96755f	-0.0011479071
192	0x3d2e6b09	0.042582545
193	0xbe8e8302	-0.27834326
194	0x3cd9a61d	0.026568467
195	0x3c907151	0.017632158
196	0x3d4fcbe7	0.050731566
197	0xbd92fb52	-0.07176842
198	0xbd533452	-0.05156357
199	0x3d87e917	0.06636255
200	0xbd3fea46	-0.04685428
201	0xbb40f975	-0.0029445563
202	0x3c965804	0.018352516
203	0xbd24f1eb	-0.040269773
204	0xbcd43a0b	-0.025906583
205	0x3cb218ed	0.021740401
206	0xbdad3411	-0.084571965
207	0xbe6d46a1	-0.23171474
208	0x3d6deea9	0.058088932
209	0x3b99c646	0.0046928255
210	0x3d73b784	0.059501186
211	0x3b9ba8a4	0.004750328
212	0xbd350de7	-0.04420271
213	0xbd5729fd	-0.052530278
214	0x3e30a087	0.17248736
215	0xba4e4daa	-0.0007869849
216	0x3d9e2e38	0.07723659
217	0xbd4644a3	-0.0484053
218	0xbda9aa6d	-0.08284459
219	0x3b5426f9	0.0032371862
220	0x3d819d2b	0.063288055
221	0xbde39347	-0.11112075
222	0x3c876561	0.016527833
223	0x3d2fec5f	0.04295003
224	0xbc30d186	-0.010792142
225	0x3d2cd9d2	0.042199917
226	0xbd04d91d	-0.032433618
227	0x3cbbc3d1	0.022920521
228	0xbcac15b8	-0.02100645
229	0x3c347a26	0.011015451
230	0x3dd4bcd0	0.103875756
231	0x3c8b0074	0.01696799
232	0x3e2d5088	0.16925251
233	0x3da2ec44	0.0795522
234	0x3e10f714	0.14156753
235	0xbb080e56	-0.0020760498
236	0xbc14ef7b	-0.0090903
237	0x3e5d0d29	0.21587051
238	0xbd93c249	-0.07214791
239	0xbde9e7df	-0.11421179
240	0xbd660262	-0.056154616
241	0xbd23c02d	-0.039978195
242	0x3d872a11	0.065998204
243	0xbeb666b8	-0.35625243
244	0x3b4d1b54	0.0031296806
245	0x3d0ea853	0.034828495
246	0x3e9ba348	0.3039801
247	0xbd62a3db	-0.055332046
248	0x3d97901b	0.07400533
249	0xbda978b3	-0.08274975
250	0xbc748fb3	-0.014926839
251	0xb92b886e	-0.00016358655
252	0x3ceab259	0.028649496
253	0xbe196a21	-0.14981891
254	0x3bd18688	0.006394211
255	0x3e77af22	0.24187902
